…
        tf.keras.layers.Conv2D(64, 3, padding='same',\\\n             activation='relu'),\\\n             tf.keras.layers.MaxPooling2D(),\\\n             tf.keras.layers.Flatten(),\\\n             tf.keras.layers.Dense(512, activation='relu'),\\\n             tf.keras.layers.Dense(1)])\n    model.summary()\n    ```", "```py\n    Model: \"sequential\"\n    _________________________________________________________________\n    Layer (type)                 Output Shape              Param #   \n    =================================================================\n    conv2d (Conv2D)              (None, 480, 680, 16)      448       \n    _________________________________________________________________\n    max_pooling2d (MaxPooling2D) (None, 240, 340, 16)      0         \n    _________________________________________________________________\n    conv2d_1 (Conv2D)            (None, 240, 340, 32)      4640      \n    _________________________________________________________________\n    max_pooling2d_1 (MaxPooling2 (None, 120, 170, 32)      0         \n    _________________________________________________________________\n    conv2d_2 (Conv2D)            (None, 120, 170, 64)      18496     \n    _________________________________________________________________\n    max_pooling2d_2 (MaxPooling2 (None, 60, 85, 64)        0         \n    _________________________________________________________________\n    flatten (Flatten)            (None, 326400)            0         \n    _________________________________________________________________\n    dense (Dense)                (None, 512)               167117312 \n    _________________________________________________________________\n    dense_1 (Dense)              (None, 1)                 513       \n    =================================================================\n    Total params: 167,141,409\n    Trainable params: 167,141,409\n    Non-trainable params: 0\n    ```", "```py\n    from __future__ import absolute_import, division, \\\n    print_function, unicode_literals\n    import tensorflow as tf\n    print(\"TensorFlow version: {}\".format(tf.__version__))\n    ```", "```py\n  
…
